…
E0821 09:21:09.051756  5405 upgrade_proto.cpp:623] Warning: had one or more problems upgrading V1LayerParameter (see above); continuing anyway.
I0821 09:21:09.051867  5405 net.cpp:339] The NetState phase (0) differed from the phase (1) specified by a rule in layer MyData
I0821 09:21:09.051990  5405 net.cpp:50] Initializing net from parameters: 
name: "fkp_net"
state {
  phase: TRAIN
}
layer {
  name: "MyData"
  type: "HDF5Data"
  top: "data"
  top: "label"
  include {
    phase: TRAIN
  }
  hdf5_data_param {
    source: "data/kaggle_fkp_data/train_data_list.txt"
    batch_size: 128
    shuffle: true
  }
}
layer {
  name: "conv1"
  type: "Convolution"
  bottom: "data"
  top: "conv1"
  param {
    lr_mult: 1
  }
  param {
    lr_mult: 2
  }
  convolution_param {
    num_output: 20
    kernel_size: 5
    stride: 1
    weight_filler {
      type: "xavier"
      variance_norm: AVERAGE
    }
    bias_filler {
      type: "constant"
      value: 0
    }
  }
}
layer {
  name: "relu1"
  type: "ReLU"
  bottom: "conv1"
  top: "conv1"
}
layer {
  name: "pool1"
  type: "Pooling"
  bottom: "conv1"
  top: "pool1"
  pooling_param {
    pool: MAX
    kernel_size: 2
    stride: 2
  }
}
layer {
  name: "conv2"
  type: "Convolution"
  bottom: "pool1"
  top: "conv2"
  param {
    lr_mult: 1
  }
  param {
    lr_mult: 2
  }
  convolution_param {
    num_output: 48
    kernel_size: 5
    stride: 1
    weight_filler {
      type: "xavier"
      variance_norm: AVERAGE
    }
    bias_filler {
      type: "constant"
      value: 0
    }
  }
}
layer {
  name: "relu2"
  type: "ReLU"
  bottom: "conv2"
  top: "conv2"
}
layer {
  name: "pool2"
  type: "Pooling"
  bottom: "conv2"
  top: "pool2"
  pooling_param {
    pool: MAX
    kernel_size: 2
    stride: 2
  }
}
layer {
  name: "conv3"
  type: "Convolution"
  bottom: "pool2"
  top: "conv3"
  param {
    lr_mult: 1
  }
  param {
    lr_mult: 2
  }
  convolution_param {
    num_output: 64
    kernel_size: 3
    stride: 1
    weight_filler {
      type: "xavier"
      variance_norm: AVERAGE
    }
    bias_filler {
      type: "constant"
      value: 0
    }
  }
}
layer {
  name: "relu3"
  type: "ReLU"
  bottom: "conv3"
  top: "conv3"
}
layer {
  name: "fc5"
  type: "InnerProduct"
  bottom: "conv3"
  top: "fc5"
  param {
    lr_mult: 1
    decay_mult: 1
  }
  param {
    lr_mult: 2
    decay_mult: 0
  }
  inner_product_param {
    num_output: 500
    weight_filler {
      type: "xavier"
      variance_norm: AVERAGE
    }
    bias_filler {
      type: "constant"
      value: 0
    }
  }
}
layer {
  name: "fc6"
  type: "InnerProduct"
  bottom: "fc5"
  top: "fc6"
  param {
    lr_mult: 1
    decay_mult: 1
  }
  param {
    lr_mult: 2
    decay_mult: 0
  }
  inner_product_param {
    num_output: 30
    weight_filler {
      type: "xavier"
      variance_norm: AVERAGE
    }
    bias_filler {
      type: "constant"
      value: 0
    }
  }
}
layer {
  name: "loss"
  type: "EuclideanLoss"
  bottom: "fc6"
  bottom: "label"
  top: "loss"
}
I0821 09:21:09.052466  5405 layer_factory.hpp:75] Creating layer MyData
I0821 09:21:09.052503  5405 net.cpp:110] Creating Layer MyData
I0821 09:21:09.052513  5405 net.cpp:432] MyData -> data
I0821 09:21:09.052549  5405 net.cpp:432] MyData -> label
I0821 09:21:09.052574  5405 hdf5_data_layer.cpp:80] Loading list of HDF5 filenames from: data/kaggle_fkp_data/train_data_list.txt
I0821 09:21:09.052621  5405 hdf5_data_layer.cpp:94] Number of HDF5 files: 1
I0821 09:21:09.093633  5405 net.cpp:155] Setting up MyData
I0821 09:21:09.093675  5405 net.cpp:163] Top shape: 128 1 96 96 (1179648)
I0821 09:21:09.093685  5405 net.cpp:163] Top shape: 128 30 (3840)
I0821 09:21:09.093698  5405 layer_factory.hpp:75] Creating layer conv1
I0821 09:21:09.093719  5405 net.cpp:110] Creating Layer conv1
I0821 09:21:09.093730  5405 net.cpp:476] conv1 <- data
I0821 09:21:09.093744  5405 net.cpp:432] conv1 -> conv1
I0821 09:21:09.130288  5405 net.cpp:155] Setting up conv1
I0821 09:21:09.130329  5405 net.cpp:163] Top shape: 128 20 92 92 (21667840)
I0821 09:21:09.130367  5405 layer_factory.hpp:75] Creating layer relu1
I0821 09:21:09.130381  5405 net.cpp:110] Creating Layer relu1
I0821 09:21:09.130390  5405 net.cpp:476] relu1 <- conv1
I0821 09:21:09.130399  5405 net.cpp:419] relu1 -> conv1 (in-place)
I0821 09:21:09.130460  5405 net.cpp:155] Setting up relu1
I0821 09:21:09.130480  5405 net.cpp:163] Top shape: 128 20 92 92 (21667840)
I0821 09:21:09.130486  5405 layer_factory.hpp:75] Creating layer pool1
I0821 09:21:09.130496  5405 net.cpp:110] Creating Layer pool1
I0821 09:21:09.130502  5405 net.cpp:476] pool1 <- conv1
I0821 09:21:09.130511  5405 net.cpp:432] pool1 -> pool1
I0821 09:21:09.130664  5405 net.cpp:155] Setting up pool1
I0821 09:21:09.130679  5405 net.cpp:163] Top shape: 128 20 46 46 (5416960)
I0821 09:21:09.130686  5405 layer_factory.hpp:75] Creating layer conv2
I0821 09:21:09.130697  5405 net.cpp:110] Creating Layer conv2
I0821 09:21:09.130703  5405 net.cpp:476] conv2 <- pool1
I0821 09:21:09.130712  5405 net.cpp:432] conv2 -> conv2
I0821 09:21:09.131453  5405 net.cpp:155] Setting up conv2
I0821 09:21:09.131470  5405 net.cpp:163] Top shape: 128 48 42 42 (10838016)
I0821 09:21:09.131484  5405 layer_factory.hpp:75] Creating layer relu2
I0821 09:21:09.131491  5405 net.cpp:110] Creating Layer relu2
I0821 09:21:09.131497  5405 net.cpp:476] relu2 <- conv2
I0821 09:21:09.131505  5405 net.cpp:419] relu2 -> conv2 (in-place)
I0821 09:21:09.131557  5405 net.cpp:155] Setting up relu2
I0821 09:21:09.131567  5405 net.cpp:163] Top shape: 128 48 42 42 (10838016)
I0821 09:21:09.131573  5405 layer_factory.hpp:75] Creating layer pool2
I0821 09:21:09.131582  5405 net.cpp:110] Creating Layer pool2
I0821 09:21:09.131587  5405 net.cpp:476] pool2 <- conv2
I0821 09:21:09.131594  5405 net.cpp:432] pool2 -> pool2
I0821 09:21:09.131644  5405 net.cpp:155] Setting up pool2
I0821 09:21:09.131654  5405 net.cpp:163] Top shape: 128 48 21 21 (2709504)
I0821 09:21:09.131660  5405 layer_factory.hpp:75] Creating layer conv3
I0821 09:21:09.131669  5405 net.cpp:110] Creating Layer conv3
I0821 09:21:09.131675  5405 net.cpp:476] conv3 <- pool2
I0821 09:21:09.131682  5405 net.cpp:432] conv3 -> conv3
I0821 09:21:09.132164  5405 net.cpp:155] Setting up conv3
I0821 09:21:09.132180  5405 net.cpp:163] Top shape: 128 64 19 19 (2957312)
I0821 09:21:09.132192  5405 layer_factory.hpp:75] Creating layer relu3
I0821 09:21:09.132202  5405 net.cpp:110] Creating Layer relu3
I0821 09:21:09.132208  5405 net.cpp:476] relu3 <- conv3
I0821 09:21:09.132216  5405 net.cpp:419] relu3 -> conv3 (in-place)
I0821 09:21:09.132264  5405 net.cpp:155] Setting up relu3
I0821 09:21:09.132274  5405 net.cpp:163] Top shape: 128 64 19 19 (2957312)
I0821 09:21:09.132280  5405 layer_factory.hpp:75] Creating layer fc5
I0821 09:21:09.132290  5405 net.cpp:110] Creating Layer fc5
I0821 09:21:09.132297  5405 net.cpp:476] fc5 <- conv3
I0821 09:21:09.132303  5405 net.cpp:432] fc5 -> fc5
I0821 09:21:09.230295  5405 net.cpp:155] Setting up fc5
I0821 09:21:09.230332  5405 net.cpp:163] Top shape: 128 500 (64000)
I0821 09:21:09.230346  5405 layer_factory.hpp:75] Creating layer fc6
I0821 09:21:09.230360  5405 net.cpp:110] Creating Layer fc6
I0821 09:21:09.230370  5405 net.cpp:476] fc6 <- fc5
I0821 09:21:09.230381  5405 net.cpp:432] fc6 -> fc6
I0821 09:21:09.230572  5405 net.cpp:155] Setting up fc6
I0821 09:21:09.230584  5405 net.cpp:163] Top shape: 128 30 (3840)
I0821 09:21:09.230595  5405 layer_factory.hpp:75] Creating layer loss
I0821 09:21:09.230604  5405 net.cpp:110] Creating Layer loss
I0821 09:21:09.230609  5405 net.cpp:476] loss <- fc6
I0821 09:21:09.230617  5405 net.cpp:476] loss <- label
I0821 09:21:09.230625  5405 net.cpp:432] loss -> loss
I0821 09:21:09.230646  5405 net.cpp:155] Setting up loss
I0821 09:21:09.230655  5405 net.cpp:163] Top shape: (1)
…
I0821 09:21:09.231272  5405 solver.cpp:170] Creating test net (#0) specified by net file: examples/kaggle_prototxt/fkp_net.prototxt
I0821 09:21:09.231295  5405 net.cpp:339] The NetState phase (1) differed from the phase (0) specified by a rule in layer MyData
I0821 09:21:09.231384  5405 net.cpp:50] Initializing net from parameters: 
name: "fkp_net"
state {
  phase: TEST
}
layer {
  name: "MyData"
  type: "HDF5Data"
  top: "data"
  top: "label"
  include {
    phase: TEST
  }
  hdf5_data_param {
    source: "data/kaggle_fkp_data/val_data_list.txt"
    batch_size: 540
  }
}
layer {
  name: "conv1"
  type: "Convolution"
  bottom: "data"
  top: "conv1"
  param {
    lr_mult: 1
  }
  param {
    lr_mult: 2
  }
  convolution_param {
    num_output: 20
    kernel_size: 5
    stride: 1
    weight_filler {
      type: "xavier"
      variance_norm: AVERAGE
    }
    bias_filler {
      type: "constant"
      value: 0
    }
  }
}
layer {
  name: "relu1"
  type: "ReLU"
  bottom: "conv1"
  top: "conv1"
}
layer {
  name: "pool1"
  type: "Pooling"
  bottom: "conv1"
  top: "pool1"
  pooling_param {
    pool: MAX
    kernel_size: 2
    stride: 2
  }
}
layer {
  name: "conv2"
  type: "Convolution"
  bottom: "pool1"
  top: "conv2"
  param {
    lr_mult: 1
  }
  param {
    lr_mult: 2
  }
  convolution_param {
    num_output: 48
    kernel_size: 5
    stride: 1
    weight_filler {
      type: "xavier"
      variance_norm: AVERAGE
    }
    bias_filler {
      type: "constant"
      value: 0
    }
  }
}
layer {
  name: "relu2"
  type: "ReLU"
  bottom: "conv2"
  top: "conv2"
}
layer {
  name: "pool2"
  type: "Pooling"
  bottom: "conv2"
  top: "pool2"
  pooling_param {
    pool: MAX
    kernel_size: 2
    stride: 2
  }
}
layer {
  name: "conv3"
  type: "Convolution"
  bottom: "pool2"
  top: "conv3"
  param {
    lr_mult: 1
  }
  param {
    lr_mult: 2
  }
  convolution_param {
    num_output: 64
    kernel_size: 3
    stride: 1
    weight_filler {
      type: "xavier"
      variance_norm: AVERAGE
    }
    bias_filler {
      type: "constant"
      value: 0
    }
  }
}
layer {
  name: "relu3"
  type: "ReLU"
  bottom: "conv3"
  top: "conv3"
}
layer {
  name: "fc5"
  type: "InnerProduct"
  bottom: "conv3"
  top: "fc5"
  param {
    lr_mult: 1
    decay_mult: 1
  }
  param {
    lr_mult: 2
    decay_mult: 0
  }
  inner_product_param {
    num_output: 500
    weight_filler {
      type: "xavier"
      variance_norm: AVERAGE
    }
    bias_filler {
      type: "constant"
      value: 0
    }
  }
}
layer {
  name: "fc6"
  type: "InnerProduct"
  bottom: "fc5"
  top: "fc6"
  param {
    lr_mult: 1
    decay_mult: 1
  }
  param {
    lr_mult: 2
    decay_mult: 0
  }
  inner_product_param {
    num_output: 30
    weight_filler {
      type: "xavier"
      variance_norm: AVERAGE
    }
    bias_filler {
      type: "constant"
      value: 0
    }
  }
}
layer {
  name: "loss"
  type: "EuclideanLoss"
  bottom: "fc6"
  bottom: "label"
  top: "loss"
}
I0821 09:21:09.231801  5405 layer_factory.hpp:75] Creating layer MyData
I0821 09:21:09.231812  5405 net.cpp:110] Creating Layer MyData
I0821 09:21:09.231818  5405 net.cpp:432] MyData -> data
I0821 09:21:09.231828  5405 net.cpp:432] MyData -> label
I0821 09:21:09.231837  5405 hdf5_data_layer.cpp:80] Loading list of HDF5 filenames from: data/kaggle_fkp_data/val_data_list.txt
I0821 09:21:09.231856  5405 hdf5_data_layer.cpp:94] Number of HDF5 files: 1
I0821 09:21:09.245085  5405 net.cpp:155] Setting up MyData
I0821 09:21:09.245139  5405 net.cpp:163] Top shape: 540 1 96 96 (4976640)
I0821 09:21:09.245147  5405 net.cpp:163] Top shape: 540 30 (16200)
I0821 09:21:09.245158  5405 layer_factory.hpp:75] Creating layer conv1
I0821 09:21:09.245179  5405 net.cpp:110] Creating Layer conv1
I0821 09:21:09.245187  5405 net.cpp:476] conv1 <- data
I0821 09:21:09.245198  5405 net.cpp:432] conv1 -> conv1
I0821 09:21:09.245630  5405 net.cpp:155] Setting up conv1
I0821 09:21:09.245646  5405 net.cpp:163] Top shape: 540 20 92 92 (91411200)
I0821 09:21:09.245661  5405 layer_factory.hpp:75] Creating layer relu1
I0821 09:21:09.245671  5405 net.cpp:110] Creating Layer relu1
I0821 09:21:09.245676  5405 net.cpp:476] relu1 <- conv1
I0821 09:21:09.245684  5405 net.cpp:419] relu1 -> conv1 (in-place)
I0821 09:21:09.245818  5405 net.cpp:155] Setting up relu1
I0821 09:21:09.245833  5405 net.cpp:163] Top shape: 540 20 92 92 (91411200)
I0821 09:21:09.245839  5405 layer_factory.hpp:75] Creating layer pool1
I0821 09:21:09.245848  5405 net.cpp:110] Creating Layer pool1
I0821 09:21:09.245854  5405 net.cpp:476] pool1 <- conv1
I0821 09:21:09.245862  5405 net.cpp:432] pool1 -> pool1
I0821 09:21:09.245914  5405 net.cpp:155] Setting up pool1
I0821 09:21:09.245924  5405 net.cpp:163] Top shape: 540 20 46 46 (22852800)
I0821 09:21:09.245930  5405 layer_factory.hpp:75] Creating layer conv2
I0821 09:21:09.245940  5405 net.cpp:110] Creating Layer conv2
I0821 09:21:09.245946  5405 net.cpp:476] conv2 <- pool1
I0821 09:21:09.245954  5405 net.cpp:432] conv2 -> conv2
I0821 09:21:09.246404  5405 net.cpp:155] Setting up conv2
I0821 09:21:09.246420  5405 net.cpp:163] Top shape: 540 48 42 42 (45722880)
I0821 09:21:09.246431  5405 layer_factory.hpp:75] Creating layer relu2
I0821 09:21:09.246440  5405 net.cpp:110] Creating Layer relu2
I0821 09:21:09.246446  5405 net.cpp:476] relu2 <- conv2
I0821 09:21:09.246454  5405 net.cpp:419] relu2 -> conv2 (in-place)
I0821 09:21:09.246505  5405 net.cpp:155] Setting up relu2
I0821 09:21:09.246513  5405 net.cpp:163] Top shape: 540 48 42 42 (45722880)
I0821 09:21:09.246520  5405 layer_factory.hpp:75] Creating layer pool2
I0821 09:21:09.246527  5405 net.cpp:110] Creating Layer pool2
I0821 09:21:09.246533  5405 net.cpp:476] pool2 <- conv2
I0821 09:21:09.246541  5405 net.cpp:432] pool2 -> pool2
I0821 09:21:09.246588  5405 net.cpp:155] Setting up pool2
I0821 09:21:09.246598  5405 net.cpp:163] Top shape: 540 48 21 21 (11430720)
I0821 09:21:09.246604  5405 layer_factory.hpp:75] Creating layer conv3
I0821 09:21:09.246631  5405 net.cpp:110] Creating Layer conv3
I0821 09:21:09.246639  5405 net.cpp:476] conv3 <- pool2
I0821 09:21:09.246645  5405 net.cpp:432] conv3 -> conv3
I0821 09:21:09.247123  5405 net.cpp:155] Setting up conv3
I0821 09:21:09.247138  5405 net.cpp:163] Top shape: 540 64 19 19 (12476160)
I0821 09:21:09.247148  5405 layer_factory.hpp:75] Creating layer relu3
I0821 09:21:09.247158  5405 net.cpp:110] Creating Layer relu3
I0821 09:21:09.247164  5405 net.cpp:476] relu3 <- conv3
I0821 09:21:09.247172  5405 net.cpp:419] relu3 -> conv3 (in-place)
I0821 09:21:09.247300  5405 net.cpp:155] Setting up relu3
I0821 09:21:09.247314  5405 net.cpp:163] Top shape: 540 64 19 19 (12476160)
I0821 09:21:09.247320  5405 layer_factory.hpp:75] Creating layer fc5
I0821 09:21:09.247330  5405 net.cpp:110] Creating Layer fc5
I0821 09:21:09.247336  5405 net.cpp:476] fc5 <- conv3
I0821 09:21:09.247344  5405 net.cpp:432] fc5 -> fc5
I0821 09:21:09.345037  5405 net.cpp:155] Setting up fc5
I0821 09:21:09.345082  5405 net.cpp:163] Top shape: 540 500 (270000)
I0821 09:21:09.345100  5405 layer_factory.hpp:75] Creating layer fc6
I0821 09:21:09.345118  5405 net.cpp:110] Creating Layer fc6
I0821 09:21:09.345127  5405 net.cpp:476] fc6 <- fc5
I0821 09:21:09.345139  5405 net.cpp:432] fc6 -> fc6
I0821 09:21:09.345325  5405 net.cpp:155] Setting up fc6
I0821 09:21:09.345337  5405 net.cpp:163] Top shape: 540 30 (16200)
I0821 09:21:09.345350  5405 layer_factory.hpp:75] Creating layer loss
I0821 09:21:09.345358  5405 net.cpp:110] Creating Layer loss
I0821 09:21:09.345365  5405 net.cpp:476] loss <- fc6
I0821 09:21:09.345372  5405 net.cpp:476] loss <- label
I0821 09:21:09.345381  5405 net.cpp:432] loss -> loss
I0821 09:21:09.345405  5405 net.cpp:155] Setting up loss
I0821 09:21:09.345414  5405 net.cpp:163] Top shape: (1)
…
